EncoderDecoder(
  (backbone): VisionTransformer(
    (patch_embed): PatchEmbed(
      (adap_padding): AdaptivePadding()
      (projection): Conv2d(3, 1024, kernel_size=(16, 16), stride=(16, 16))
    )
    (drop_after_pos): Dropout(p=0.0, inplace=False)
    (layers): ModuleList(
      (0): TransformerEncoderLayer(
        (ln1): LayerNorm((1024,), eps=1e-06, elementwise_affine=True)
        (attn): MultiheadAttention(
          (attn): MultiheadAttention(
            (out_proj): NonDynamicallyQuantizableLinear(in_features=1024, out_features=1024, bias=True)
          )
          (proj_drop): Dropout(p=0.0, inplace=False)
          (dropout_layer): Dropout(p=0.0, inplace=False)
        )
        (ln2): LayerNorm((1024,), eps=1e-06, elementwise_affine=True)
        (ffn): FFN(
          (activate): GELU()
          (layers): Sequential(
            (0): Sequential(
              (0): Linear(in_features=1024, out_features=4096, bias=True)
              (1): GELU()
              (2): Dropout(p=0.0, inplace=False)
            )
            (1): Linear(in_features=4096, out_features=1024, bias=True)
            (2): Dropout(p=0.0, inplace=False)
          )
          (dropout_layer): Identity()
        )
      )
      (1): TransformerEncoderLayer(
        (ln1): LayerNorm((1024,), eps=1e-06, elementwise_affine=True)
        (attn): MultiheadAttention(
          (attn): MultiheadAttention(
            (out_proj): NonDynamicallyQuantizableLinear(in_features=1024, out_features=1024, bias=True)
          )
          (proj_drop): Dropout(p=0.0, inplace=False)
          (dropout_layer): Dropout(p=0.0, inplace=False)
        )
        (ln2): LayerNorm((1024,), eps=1e-06, elementwise_affine=True)
        (ffn): FFN(
          (activate): GELU()
          (layers): Sequential(
            (0): Sequential(
              (0): Linear(in_features=1024, out_features=4096, bias=True)
              (1): GELU()
              (2): Dropout(p=0.0, inplace=False)
            )
            (1): Linear(in_features=4096, out_features=1024, bias=True)
            (2): Dropout(p=0.0, inplace=False)
          )
          (dropout_layer): Identity()
        )
      )
      (2): TransformerEncoderLayer(
        (ln1): LayerNorm((1024,), eps=1e-06, elementwise_affine=True)
        (attn): MultiheadAttention(
          (attn): MultiheadAttention(
            (out_proj): NonDynamicallyQuantizableLinear(in_features=1024, out_features=1024, bias=True)
          )
          (proj_drop): Dropout(p=0.0, inplace=False)
          (dropout_layer): Dropout(p=0.0, inplace=False)
        )
        (ln2): LayerNorm((1024,), eps=1e-06, elementwise_affine=True)
        (ffn): FFN(
          (activate): GELU()
          (layers): Sequential(
            (0): Sequential(
              (0): Linear(in_features=1024, out_features=4096, bias=True)
              (1): GELU()
              (2): Dropout(p=0.0, inplace=False)
            )
            (1): Linear(in_features=4096, out_features=1024, bias=True)
            (2): Dropout(p=0.0, inplace=False)
          )
          (dropout_layer): Identity()
        )
      )
      (3): TransformerEncoderLayer(
        (ln1): LayerNorm((1024,), eps=1e-06, elementwise_affine=True)
        (attn): MultiheadAttention(
          (attn): MultiheadAttention(
            (out_proj): NonDynamicallyQuantizableLinear(in_features=1024, out_features=1024, bias=True)
          )
          (proj_drop): Dropout(p=0.0, inplace=False)
          (dropout_layer): Dropout(p=0.0, inplace=False)
        )
        (ln2): LayerNorm((1024,), eps=1e-06, elementwise_affine=True)
        (ffn): FFN(
          (activate): GELU()
          (layers): Sequential(
            (0): Sequential(
              (0): Linear(in_features=1024, out_features=4096, bias=True)
              (1): GELU()
              (2): Dropout(p=0.0, inplace=False)
            )
            (1): Linear(in_features=4096, out_features=1024, bias=True)
            (2): Dropout(p=0.0, inplace=False)
          )
          (dropout_layer): Identity()
        )
      )
      (4): TransformerEncoderLayer(
        (ln1): LayerNorm((1024,), eps=1e-06, elementwise_affine=True)
        (attn): MultiheadAttention(
          (attn): MultiheadAttention(
            (out_proj): NonDynamicallyQuantizableLinear(in_features=1024, out_features=1024, bias=True)
          )
          (proj_drop): Dropout(p=0.0, inplace=False)
          (dropout_layer): Dropout(p=0.0, inplace=False)
        )
        (ln2): LayerNorm((1024,), eps=1e-06, elementwise_affine=True)
        (ffn): FFN(
          (activate): GELU()
          (layers): Sequential(
            (0): Sequential(
              (0): Linear(in_features=1024, out_features=4096, bias=True)
              (1): GELU()
              (2): Dropout(p=0.0, inplace=False)
            )
            (1): Linear(in_features=4096, out_features=1024, bias=True)
            (2): Dropout(p=0.0, inplace=False)
          )
          (dropout_layer): Identity()
        )
      )
      (5): TransformerEncoderLayer(
        (ln1): LayerNorm((1024,), eps=1e-06, elementwise_affine=True)
        (attn): MultiheadAttention(
          (attn): MultiheadAttention(
            (out_proj): NonDynamicallyQuantizableLinear(in_features=1024, out_features=1024, bias=True)
          )
          (proj_drop): Dropout(p=0.0, inplace=False)
          (dropout_layer): Dropout(p=0.0, inplace=False)
        )
        (ln2): LayerNorm((1024,), eps=1e-06, elementwise_affine=True)
        (ffn): FFN(
          (activate): GELU()
          (layers): Sequential(
            (0): Sequential(
              (0): Linear(in_features=1024, out_features=4096, bias=True)
              (1): GELU()
              (2): Dropout(p=0.0, inplace=False)
            )
            (1): Linear(in_features=4096, out_features=1024, bias=True)
            (2): Dropout(p=0.0, inplace=False)
          )
          (dropout_layer): Identity()
        )
      )
      (6): TransformerEncoderLayer(
        (ln1): LayerNorm((1024,), eps=1e-06, elementwise_affine=True)
        (attn): MultiheadAttention(
          (attn): MultiheadAttention(
            (out_proj): NonDynamicallyQuantizableLinear(in_features=1024, out_features=1024, bias=True)
          )
          (proj_drop): Dropout(p=0.0, inplace=False)
          (dropout_layer): Dropout(p=0.0, inplace=False)
        )
        (ln2): LayerNorm((1024,), eps=1e-06, elementwise_affine=True)
        (ffn): FFN(
          (activate): GELU()
          (layers): Sequential(
            (0): Sequential(
              (0): Linear(in_features=1024, out_features=4096, bias=True)
              (1): GELU()
              (2): Dropout(p=0.0, inplace=False)
            )
            (1): Linear(in_features=4096, out_features=1024, bias=True)
            (2): Dropout(p=0.0, inplace=False)
          )
          (dropout_layer): Identity()
        )
      )
      (7): TransformerEncoderLayer(
        (ln1): LayerNorm((1024,), eps=1e-06, elementwise_affine=True)
        (attn): MultiheadAttention(
          (attn): MultiheadAttention(
            (out_proj): NonDynamicallyQuantizableLinear(in_features=1024, out_features=1024, bias=True)
          )
          (proj_drop): Dropout(p=0.0, inplace=False)
          (dropout_layer): Dropout(p=0.0, inplace=False)
        )
        (ln2): LayerNorm((1024,), eps=1e-06, elementwise_affine=True)
        (ffn): FFN(
          (activate): GELU()
          (layers): Sequential(
            (0): Sequential(
              (0): Linear(in_features=1024, out_features=4096, bias=True)
              (1): GELU()
              (2): Dropout(p=0.0, inplace=False)
            )
            (1): Linear(in_features=4096, out_features=1024, bias=True)
            (2): Dropout(p=0.0, inplace=False)
          )
          (dropout_layer): Identity()
        )
      )
      (8): TransformerEncoderLayer(
        (ln1): LayerNorm((1024,), eps=1e-06, elementwise_affine=True)
        (attn): MultiheadAttention(
          (attn): MultiheadAttention(
            (out_proj): NonDynamicallyQuantizableLinear(in_features=1024, out_features=1024, bias=True)
          )
          (proj_drop): Dropout(p=0.0, inplace=False)
          (dropout_layer): Dropout(p=0.0, inplace=False)
        )
        (ln2): LayerNorm((1024,), eps=1e-06, elementwise_affine=True)
        (ffn): FFN(
          (activate): GELU()
          (layers): Sequential(
            (0): Sequential(
              (0): Linear(in_features=1024, out_features=4096, bias=True)
              (1): GELU()
              (2): Dropout(p=0.0, inplace=False)
            )
            (1): Linear(in_features=4096, out_features=1024, bias=True)
            (2): Dropout(p=0.0, inplace=False)
          )
          (dropout_layer): Identity()
        )
      )
      (9): TransformerEncoderLayer(
        (ln1): LayerNorm((1024,), eps=1e-06, elementwise_affine=True)
        (attn): MultiheadAttention(
          (attn): MultiheadAttention(
            (out_proj): NonDynamicallyQuantizableLinear(in_features=1024, out_features=1024, bias=True)
          )
          (proj_drop): Dropout(p=0.0, inplace=False)
          (dropout_layer): Dropout(p=0.0, inplace=False)
        )
        (ln2): LayerNorm((1024,), eps=1e-06, elementwise_affine=True)
        (ffn): FFN(
          (activate): GELU()
          (layers): Sequential(
            (0): Sequential(
              (0): Linear(in_features=1024, out_features=4096, bias=True)
              (1): GELU()
              (2): Dropout(p=0.0, inplace=False)
            )
            (1): Linear(in_features=4096, out_features=1024, bias=True)
            (2): Dropout(p=0.0, inplace=False)
          )
          (dropout_layer): Identity()
        )
      )
      (10): TransformerEncoderLayer(
        (ln1): LayerNorm((1024,), eps=1e-06, elementwise_affine=True)
        (attn): MultiheadAttention(
          (attn): MultiheadAttention(
            (out_proj): NonDynamicallyQuantizableLinear(in_features=1024, out_features=1024, bias=True)
          )
          (proj_drop): Dropout(p=0.0, inplace=False)
          (dropout_layer): Dropout(p=0.0, inplace=False)
        )
        (ln2): LayerNorm((1024,), eps=1e-06, elementwise_affine=True)
        (ffn): FFN(
          (activate): GELU()
          (layers): Sequential(
            (0): Sequential(
              (0): Linear(in_features=1024, out_features=4096, bias=True)
              (1): GELU()
              (2): Dropout(p=0.0, inplace=False)
            )
            (1): Linear(in_features=4096, out_features=1024, bias=True)
            (2): Dropout(p=0.0, inplace=False)
          )
          (dropout_layer): Identity()
        )
      )
      (11): TransformerEncoderLayer(
        (ln1): LayerNorm((1024,), eps=1e-06, elementwise_affine=True)
        (attn): MultiheadAttention(
          (attn): MultiheadAttention(
            (out_proj): NonDynamicallyQuantizableLinear(in_features=1024, out_features=1024, bias=True)
          )
          (proj_drop): Dropout(p=0.0, inplace=False)
          (dropout_layer): Dropout(p=0.0, inplace=False)
        )
        (ln2): LayerNorm((1024,), eps=1e-06, elementwise_affine=True)
        (ffn): FFN(
          (activate): GELU()
          (layers): Sequential(
            (0): Sequential(
              (0): Linear(in_features=1024, out_features=4096, bias=True)
              (1): GELU()
              (2): Dropout(p=0.0, inplace=False)
            )
            (1): Linear(in_features=4096, out_features=1024, bias=True)
            (2): Dropout(p=0.0, inplace=False)
          )
          (dropout_layer): Identity()
        )
      )
      (12): TransformerEncoderLayer(
        (ln1): LayerNorm((1024,), eps=1e-06, elementwise_affine=True)
        (attn): MultiheadAttention(
          (attn): MultiheadAttention(
            (out_proj): NonDynamicallyQuantizableLinear(in_features=1024, out_features=1024, bias=True)
          )
          (proj_drop): Dropout(p=0.0, inplace=False)
          (dropout_layer): Dropout(p=0.0, inplace=False)
        )
        (ln2): LayerNorm((1024,), eps=1e-06, elementwise_affine=True)
        (ffn): FFN(
          (activate): GELU()
          (layers): Sequential(
            (0): Sequential(
              (0): Linear(in_features=1024, out_features=4096, bias=True)
              (1): GELU()
              (2): Dropout(p=0.0, inplace=False)
            )
            (1): Linear(in_features=4096, out_features=1024, bias=True)
            (2): Dropout(p=0.0, inplace=False)
          )
          (dropout_layer): Identity()
        )
      )
      (13): TransformerEncoderLayer(
        (ln1): LayerNorm((1024,), eps=1e-06, elementwise_affine=True)
        (attn): MultiheadAttention(
          (attn): MultiheadAttention(
            (out_proj): NonDynamicallyQuantizableLinear(in_features=1024, out_features=1024, bias=True)
          )
          (proj_drop): Dropout(p=0.0, inplace=False)
          (dropout_layer): Dropout(p=0.0, inplace=False)
        )
        (ln2): LayerNorm((1024,), eps=1e-06, elementwise_affine=True)
        (ffn): FFN(
          (activate): GELU()
          (layers): Sequential(
            (0): Sequential(
              (0): Linear(in_features=1024, out_features=4096, bias=True)
              (1): GELU()
              (2): Dropout(p=0.0, inplace=False)
            )
            (1): Linear(in_features=4096, out_features=1024, bias=True)
            (2): Dropout(p=0.0, inplace=False)
          )
          (dropout_layer): Identity()
        )
      )
      (14): TransformerEncoderLayer(
        (ln1): LayerNorm((1024,), eps=1e-06, elementwise_affine=True)
        (attn): MultiheadAttention(
          (attn): MultiheadAttention(
            (out_proj): NonDynamicallyQuantizableLinear(in_features=1024, out_features=1024, bias=True)
          )
          (proj_drop): Dropout(p=0.0, inplace=False)
          (dropout_layer): Dropout(p=0.0, inplace=False)
        )
        (ln2): LayerNorm((1024,), eps=1e-06, elementwise_affine=True)
        (ffn): FFN(
          (activate): GELU()
          (layers): Sequential(
            (0): Sequential(
              (0): Linear(in_features=1024, out_features=4096, bias=True)
              (1): GELU()
              (2): Dropout(p=0.0, inplace=False)
            )
            (1): Linear(in_features=4096, out_features=1024, bias=True)
            (2): Dropout(p=0.0, inplace=False)
          )
          (dropout_layer): Identity()
        )
      )
      (15): TransformerEncoderLayer(
        (ln1): LayerNorm((1024,), eps=1e-06, elementwise_affine=True)
        (attn): MultiheadAttention(
          (attn): MultiheadAttention(
            (out_proj): NonDynamicallyQuantizableLinear(in_features=1024, out_features=1024, bias=True)
          )
          (proj_drop): Dropout(p=0.0, inplace=False)
          (dropout_layer): Dropout(p=0.0, inplace=False)
        )
        (ln2): LayerNorm((1024,), eps=1e-06, elementwise_affine=True)
        (ffn): FFN(
          (activate): GELU()
          (layers): Sequential(
            (0): Sequential(
              (0): Linear(in_features=1024, out_features=4096, bias=True)
              (1): GELU()
              (2): Dropout(p=0.0, inplace=False)
            )
            (1): Linear(in_features=4096, out_features=1024, bias=True)
            (2): Dropout(p=0.0, inplace=False)
          )
          (dropout_layer): Identity()
        )
      )
      (16): TransformerEncoderLayer(
        (ln1): LayerNorm((1024,), eps=1e-06, elementwise_affine=True)
        (attn): MultiheadAttention(
          (attn): MultiheadAttention(
            (out_proj): NonDynamicallyQuantizableLinear(in_features=1024, out_features=1024, bias=True)
          )
          (proj_drop): Dropout(p=0.0, inplace=False)
          (dropout_layer): Dropout(p=0.0, inplace=False)
        )
        (ln2): LayerNorm((1024,), eps=1e-06, elementwise_affine=True)
        (ffn): FFN(
          (activate): GELU()
          (layers): Sequential(
            (0): Sequential(
              (0): Linear(in_features=1024, out_features=4096, bias=True)
              (1): GELU()
              (2): Dropout(p=0.0, inplace=False)
            )
            (1): Linear(in_features=4096, out_features=1024, bias=True)
            (2): Dropout(p=0.0, inplace=False)
          )
          (dropout_layer): Identity()
        )
      )
      (17): TransformerEncoderLayer(
        (ln1): LayerNorm((1024,), eps=1e-06, elementwise_affine=True)
        (attn): MultiheadAttention(
          (attn): MultiheadAttention(
            (out_proj): NonDynamicallyQuantizableLinear(in_features=1024, out_features=1024, bias=True)
          )
          (proj_drop): Dropout(p=0.0, inplace=False)
          (dropout_layer): Dropout(p=0.0, inplace=False)
        )
        (ln2): LayerNorm((1024,), eps=1e-06, elementwise_affine=True)
        (ffn): FFN(
          (activate): GELU()
          (layers): Sequential(
            (0): Sequential(
              (0): Linear(in_features=1024, out_features=4096, bias=True)
              (1): GELU()
              (2): Dropout(p=0.0, inplace=False)
            )
            (1): Linear(in_features=4096, out_features=1024, bias=True)
            (2): Dropout(p=0.0, inplace=False)
          )
          (dropout_layer): Identity()
        )
      )
      (18): TransformerEncoderLayer(
        (ln1): LayerNorm((1024,), eps=1e-06, elementwise_affine=True)
        (attn): MultiheadAttention(
          (attn): MultiheadAttention(
            (out_proj): NonDynamicallyQuantizableLinear(in_features=1024, out_features=1024, bias=True)
          )
          (proj_drop): Dropout(p=0.0, inplace=False)
          (dropout_layer): Dropout(p=0.0, inplace=False)
        )
        (ln2): LayerNorm((1024,), eps=1e-06, elementwise_affine=True)
        (ffn): FFN(
          (activate): GELU()
          (layers): Sequential(
            (0): Sequential(
              (0): Linear(in_features=1024, out_features=4096, bias=True)
              (1): GELU()
              (2): Dropout(p=0.0, inplace=False)
            )
            (1): Linear(in_features=4096, out_features=1024, bias=True)
            (2): Dropout(p=0.0, inplace=False)
          )
          (dropout_layer): Identity()
        )
      )
      (19): TransformerEncoderLayer(
        (ln1): LayerNorm((1024,), eps=1e-06, elementwise_affine=True)
        (attn): MultiheadAttention(
          (attn): MultiheadAttention(
            (out_proj): NonDynamicallyQuantizableLinear(in_features=1024, out_features=1024, bias=True)
          )
          (proj_drop): Dropout(p=0.0, inplace=False)
          (dropout_layer): Dropout(p=0.0, inplace=False)
        )
        (ln2): LayerNorm((1024,), eps=1e-06, elementwise_affine=True)
        (ffn): FFN(
          (activate): GELU()
          (layers): Sequential(
            (0): Sequential(
              (0): Linear(in_features=1024, out_features=4096, bias=True)
              (1): GELU()
              (2): Dropout(p=0.0, inplace=False)
            )
            (1): Linear(in_features=4096, out_features=1024, bias=True)
            (2): Dropout(p=0.0, inplace=False)
          )
          (dropout_layer): Identity()
        )
      )
      (20): TransformerEncoderLayer(
        (ln1): LayerNorm((1024,), eps=1e-06, elementwise_affine=True)
        (attn): MultiheadAttention(
          (attn): MultiheadAttention(
            (out_proj): NonDynamicallyQuantizableLinear(in_features=1024, out_features=1024, bias=True)
          )
          (proj_drop): Dropout(p=0.0, inplace=False)
          (dropout_layer): Dropout(p=0.0, inplace=False)
        )
        (ln2): LayerNorm((1024,), eps=1e-06, elementwise_affine=True)
        (ffn): FFN(
          (activate): GELU()
          (layers): Sequential(
            (0): Sequential(
              (0): Linear(in_features=1024, out_features=4096, bias=True)
              (1): GELU()
              (2): Dropout(p=0.0, inplace=False)
            )
            (1): Linear(in_features=4096, out_features=1024, bias=True)
            (2): Dropout(p=0.0, inplace=False)
          )
          (dropout_layer): Identity()
        )
      )
      (21): TransformerEncoderLayer(
        (ln1): LayerNorm((1024,), eps=1e-06, elementwise_affine=True)
        (attn): MultiheadAttention(
          (attn): MultiheadAttention(
            (out_proj): NonDynamicallyQuantizableLinear(in_features=1024, out_features=1024, bias=True)
          )
          (proj_drop): Dropout(p=0.0, inplace=False)
          (dropout_layer): Dropout(p=0.0, inplace=False)
        )
        (ln2): LayerNorm((1024,), eps=1e-06, elementwise_affine=True)
        (ffn): FFN(
          (activate): GELU()
          (layers): Sequential(
            (0): Sequential(
              (0): Linear(in_features=1024, out_features=4096, bias=True)
              (1): GELU()
              (2): Dropout(p=0.0, inplace=False)
            )
            (1): Linear(in_features=4096, out_features=1024, bias=True)
            (2): Dropout(p=0.0, inplace=False)
          )
          (dropout_layer): Identity()
        )
      )
      (22): TransformerEncoderLayer(
        (ln1): LayerNorm((1024,), eps=1e-06, elementwise_affine=True)
        (attn): MultiheadAttention(
          (attn): MultiheadAttention(
            (out_proj): NonDynamicallyQuantizableLinear(in_features=1024, out_features=1024, bias=True)
          )
          (proj_drop): Dropout(p=0.0, inplace=False)
          (dropout_layer): Dropout(p=0.0, inplace=False)
        )
        (ln2): LayerNorm((1024,), eps=1e-06, elementwise_affine=True)
        (ffn): FFN(
          (activate): GELU()
          (layers): Sequential(
            (0): Sequential(
              (0): Linear(in_features=1024, out_features=4096, bias=True)
              (1): GELU()
              (2): Dropout(p=0.0, inplace=False)
            )
            (1): Linear(in_features=4096, out_features=1024, bias=True)
            (2): Dropout(p=0.0, inplace=False)
          )
          (dropout_layer): Identity()
        )
      )
      (23): TransformerEncoderLayer(
        (ln1): LayerNorm((1024,), eps=1e-06, elementwise_affine=True)
        (attn): MultiheadAttention(
          (attn): MultiheadAttention(
            (out_proj): NonDynamicallyQuantizableLinear(in_features=1024, out_features=1024, bias=True)
          )
          (proj_drop): Dropout(p=0.0, inplace=False)
          (dropout_layer): Dropout(p=0.0, inplace=False)
        )
        (ln2): LayerNorm((1024,), eps=1e-06, elementwise_affine=True)
        (ffn): FFN(
          (activate): GELU()
          (layers): Sequential(
            (0): Sequential(
              (0): Linear(in_features=1024, out_features=4096, bias=True)
              (1): GELU()
              (2): Dropout(p=0.0, inplace=False)
            )
            (1): Linear(in_features=4096, out_features=1024, bias=True)
            (2): Dropout(p=0.0, inplace=False)
          )
          (dropout_layer): Identity()
        )
      )
    )
  )
  init_cfg={'type': 'Pretrained', 'checkpoint': 'pretrain/vit_large_p16.pth'}
  (decode_head): SETRUPHead(
    input_transform=None, ignore_index=255, align_corners=False
    (loss_decode): CrossEntropyLoss(avg_non_ignore=False)
    (conv_seg): Conv2d(256, 6, kernel_size=(1, 1), stride=(1, 1))
    (norm): LayerNorm((1024,), eps=1e-06, elementwise_affine=True)
    (up_convs): ModuleList(
      (0): Sequential(
        (0): ConvModule(
          (conv): Conv2d(1024, 256, kernel_size=(3, 3), stride=(1, 1), padding=(1, 1), bias=False)
          (bn): SyncBatchNorm(256, eps=1e-05, momentum=0.1, affine=True, track_running_stats=True)
          (activate): ReLU(inplace=True)
        )
        (1): Upsample()
      )
      (1): Sequential(
        (0): ConvModule(
          (conv): Conv2d(256, 256, kernel_size=(3, 3), stride=(1, 1), padding=(1, 1), bias=False)
          (bn): SyncBatchNorm(256, eps=1e-05, momentum=0.1, affine=True, track_running_stats=True)
          (activate): ReLU(inplace=True)
        )
        (1): Upsample()
      )
      (2): Sequential(
        (0): ConvModule(
          (conv): Conv2d(256, 256, kernel_size=(3, 3), stride=(1, 1), padding=(1, 1), bias=False)
          (bn): SyncBatchNorm(256, eps=1e-05, momentum=0.1, affine=True, track_running_stats=True)
          (activate): ReLU(inplace=True)
        )
        (1): Upsample()
      )
      (3): Sequential(
        (0): ConvModule(
          (conv): Conv2d(256, 256, kernel_size=(3, 3), stride=(1, 1), padding=(1, 1), bias=False)
          (bn): SyncBatchNorm(256, eps=1e-05, momentum=0.1, affine=True, track_running_stats=True)
          (activate): ReLU(inplace=True)
        )
        (1): Upsample()
      )
    )
  )
  init_cfg=[{'type': 'Constant', 'val': 1.0, 'bias': 0, 'layer': 'LayerNorm'}, {'type': 'Normal', 'std': 0.01, 'override': {'name': 'conv_seg'}}]
  (auxiliary_head): ModuleList(
    (0): SETRUPHead(
      input_transform=None, ignore_index=255, align_corners=False
      (loss_decode): CrossEntropyLoss(avg_non_ignore=False)
      (conv_seg): Conv2d(256, 6, kernel_size=(1, 1), stride=(1, 1))
      (norm): LayerNorm((1024,), eps=1e-06, elementwise_affine=True)
      (up_convs): ModuleList(
        (0): Sequential(
          (0): ConvModule(
            (conv): Conv2d(1024, 256, kernel_size=(3, 3), stride=(1, 1), padding=(1, 1), bias=False)
            (bn): SyncBatchNorm(256, eps=1e-05, momentum=0.1, affine=True, track_running_stats=True)
            (activate): ReLU(inplace=True)
          )
          (1): Upsample()
        )
        (1): Sequential(
          (0): ConvModule(
            (conv): Conv2d(256, 256, kernel_size=(3, 3), stride=(1, 1), padding=(1, 1), bias=False)
            (bn): SyncBatchNorm(256, eps=1e-05, momentum=0.1, affine=True, track_running_stats=True)
            (activate): ReLU(inplace=True)
          )
          (1): Upsample()
        )
      )
    )
    init_cfg=[{'type': 'Constant', 'val': 1.0, 'bias': 0, 'layer': 'LayerNorm'}, {'type': 'Normal', 'std': 0.01, 'override': {'name': 'conv_seg'}}]
    (1): SETRUPHead(
      input_transform=None, ignore_index=255, align_corners=False
      (loss_decode): CrossEntropyLoss(avg_non_ignore=False)
      (conv_seg): Conv2d(256, 6, kernel_size=(1, 1), stride=(1, 1))
      (norm): LayerNorm((1024,), eps=1e-06, elementwise_affine=True)
      (up_convs): ModuleList(
        (0): Sequential(
          (0): ConvModule(
            (conv): Conv2d(1024, 256, kernel_size=(3, 3), stride=(1, 1), padding=(1, 1), bias=False)
            (bn): SyncBatchNorm(256, eps=1e-05, momentum=0.1, affine=True, track_running_stats=True)
            (activate): ReLU(inplace=True)
          )
          (1): Upsample()
        )
        (1): Sequential(
          (0): ConvModule(
            (conv): Conv2d(256, 256, kernel_size=(3, 3), stride=(1, 1), padding=(1, 1), bias=False)
            (bn): SyncBatchNorm(256, eps=1e-05, momentum=0.1, affine=True, track_running_stats=True)
            (activate): ReLU(inplace=True)
          )
          (1): Upsample()
        )
      )
    )
    init_cfg=[{'type': 'Constant', 'val': 1.0, 'bias': 0, 'layer': 'LayerNorm'}, {'type': 'Normal', 'std': 0.01, 'override': {'name': 'conv_seg'}}]
    (2): SETRUPHead(
      input_transform=None, ignore_index=255, align_corners=False
      (loss_decode): CrossEntropyLoss(avg_non_ignore=False)
      (conv_seg): Conv2d(256, 6, kernel_size=(1, 1), stride=(1, 1))
      (norm): LayerNorm((1024,), eps=1e-06, elementwise_affine=True)
      (up_convs): ModuleList(
        (0): Sequential(
          (0): ConvModule(
            (conv): Conv2d(1024, 256, kernel_size=(3, 3), stride=(1, 1), padding=(1, 1), bias=False)
            (bn): SyncBatchNorm(256, eps=1e-05, momentum=0.1, affine=True, track_running_stats=True)
            (activate): ReLU(inplace=True)
          )
          (1): Upsample()
        )
        (1): Sequential(
          (0): ConvModule(
            (conv): Conv2d(256, 256, kernel_size=(3, 3), stride=(1, 1), padding=(1, 1), bias=False)
            (bn): SyncBatchNorm(256, eps=1e-05, momentum=0.1, affine=True, track_running_stats=True)
            (activate): ReLU(inplace=True)
          )
          (1): Upsample()
        )
      )
    )
    init_cfg=[{'type': 'Constant', 'val': 1.0, 'bias': 0, 'layer': 'LayerNorm'}, {'type': 'Normal', 'std': 0.01, 'override': {'name': 'conv_seg'}}]
…
